WGAN_MNIST/D.pth (torch, 545205 bytes, 13 tensors)

crit.0.0.weight f4 [64, 1, 4, 4]
00000000: 9e0d 2abd 4b6e 9fbc a159 973c f554 983b
00000010: 7272 84be 7628 1dbe 3429 243d 3a35 823c
00000020: 0658 a73d c040 403e b603 163d 897d 96bc
00000030: 0501 b73c e176 193b 1bde 98bc b247 12bc
00000040: b30c a7bd 5404 093e 835d 293e 3acb 97bd
00000050: 764c 34bd 20da 873e 370e 663e dfa0 53bd
00000060: 1ae3 95bd 4e34 a0bd 2706 debd e9c5 d6bc
00000070: ee79 b13b ded8 933c 5b9d 3a3c 33b5 473b
00000080: 52e3 fbbc b899 64bd a67d c9bc 9bef 893d
00000090: 27c7 0f3d eb33 9ebd 2718 2ebe cc5f a03d
000000a0: 4d6d 083e 56c4 d33c 7b8e 4ebe e8ad b7bc
000000b0: d69b 893d c723 103e c2f1 3bbd b943 04bd
000000c0: 0385 963c 09be 41be c01e a6bd 4b67 55bd
000000d0: 8ff2 9cbd 6ffc 21be 7903 85be 2dba 41be
000000e0: 5038 493d 5409 bcbd 4744 34be f694 a7bd
000000f0: 990b 1abd 2532 953c 3abf 15bd 6266 0b3d
00000100: b54c debd ad51 ba3d 859a dbbc 343c 503c
00000110: 477b a93d 2782 80be 3a22 163e e597 0ebd
00000120: 6611 c03b 1a5d 8b3d 81ff 1cbe 11fc cd3c
00000130: 448e 133b 8b98 bfbc fbd0 213d 2783 24bd
00000140: 7412 5abd f44b 6c3d f7fe 4a3d 70b9 9b3d
00000150: ef31 dd3c 2860 fb3d 6169 1c3e 6d37 403e
00000160: 0c50 3abd be1c 563e ddfd d43e 8626 d53d
00000170: 3c30 52bd 494d d53d 6bc3 153e 1ac2 d73c
00000180: 15db 633d d087 c63d 9c9c d43d a6c1 f33c
00000190: 8442 16bd bf12 03be 0d55 3dbd 2e8d e13d
000001a0: a291 98bd efdc 2fbe 7190 ddbd 1ca6 903d
000001b0: bfaa a3bd 1f7e bebd ddae 3bbd 6352 903d
000001c0: fea9 b53d 8e89 2c3d 5060 103d 50b9 213d
000001d0: d6bf 623d 7663 ef3c dce8 a13c c53b 803c
000001e0: 2419 c53c 0efe 833c 7265 2fbb 6d18 79bc
000001f0: 2c15 2cbc 0618 7bbc c760 dfbb d1f1 fabc
00000200: c04e 8bbd f48f 50bb 84e6 44bd da58 56bd
00000210: eaf9 10be 8267 2ebd bdb3 cabc 4182 9f3c
00000220: 6684 083e aa8b 583e 0028 d2bd 198a 26bd
00000230: f51d 3c3d d47c fd3d ac40 09be 2901 05bd
00000240: 9c6a 39bc 3377 543d cc95 e83d 1471 1c3e
00000250: d723 5fbd 70d8 d7bc 382e 823d 496b a83d
00000260: aa81 29be a2d7 3abd f81d 1dbd 103b 73bd
00000270: fa82 48bd 95f0 99bc 8def ffbd 6d6c 3abe
00000280: 62c0 e33b 7508 cfbc 1e4a 5dbc f850 a2bc
00000290: 5132 dd3c 162b 833c 645e 18bc b7b6 683c
000002a0: 441e 58be 4c8d 583e e888 64be e6af dd3c
000002b0: ebaa fbba 34ef 213c c6e8 453c ba0f 79bc
000002c0: 7b13 813d e4e0 cc3d d1ba 51bd 88ec 2fbe
000002d0: 1ff4 833c cbc1 d03d 5073 33bd b0c8 51be
000002e0: 0d27 1d3d a41b a73d 2699 b8bd 7111 17be
000002f0: d7d5 ac3d 6599 dc3d 573b abbd 055c 09be
00000300: 5106 1dbe 7520 f2bd b58e d6bc 7630 a83c
00000310: ceea 5fbd c15a a6be 1710 12be 8193 8f3d
00000320: 664c e3bd 39e7 68be 2b53 37be 60bb aebd
00000330: 1487 453d b597 1f3d 5b9a 0f3d 60d1 1d3d
00000340: 7d6d d03b 1f5a 35bc 8f1c 653e 083a 0d3d
00000350: d1b8 e3bb e2d1 7ebe 6d22 463c c8da be3b
00000360: ee52 7c3e 047c 8d3c 952b 70bd 3e16 1a3d
00000370: 576f 4c3b 8c67 1b3b c642 82bc 9255 cc3c
00000380: 7309 233d 16c3 283d 4eac ab3d 6605 833e
00000390: 2975 143b ab5a 813d 5211 053d 59a8 66bc
000003a0: 3146 bb3b 993e 123e 38d7 4f3d 0424 efbd
000003b0: 42a1 47be fffb 8fbd 5952 81bd 9a4e fabc
000003c0: 2668 8abd 6d5e dc3c 6128 623d 8e8b f7bb
000003d0: ac46 06bd 4936 2c3c ca6d 2a3c 3983 d9bd
000003e0: cedb 12be 9864 ebbd 3de4 6fbd 5f98 1ebe
000003f0: 35a2 e9bd 3bc2 85be 420e 35be 79e1 1ebe
-0.041516893 -0.019461771 0.018475356 0.0046487995 -0.25868565 -0.15347466 0.040078357 0.015894521
0.08171086 0.187747 0.036624633 -0.018370407 0.022339353 0.0023416805 -0.018660596 -0.008928226
-0.08156719 0.13380557 0.16539578 -0.07411809 -0.04401823 0.26533604 0.2246636 -0.05166709
-0.07318707 -0.07822476 -0.10841017 -0.026217418 0.0054161465 0.018047746 0.0113900555 0.0030472993
-0.030748043 -0.05581066 -0.024596047 0.06735154 0.035102036 -0.07724746 -0.17001401 0.07830772
0.13322945 0.025850456 -0.2017154 -0.022421792 0.067191765 0.14076148 -0.045884855 -0.032291148
0.018373972 -0.18920149 -0.08111334 -0.05210046 -0.07663452 -0.15818952 -0.25979212 -0.18918677
0.04912597 -0.09181467 -0.1760417 -0.08182709 -0.037608717 0.018212387 -0.03655932 0.034033187
-0.108544745 0.0909761 -0.02680708 0.012709666 0.082754664 -0.25099298 0.14661494 -0.034812827
0.005861449 0.06804867 -0.15331842 0.025144609 0.0022515217 -0.023388168 0.03950594 -0.04016414
-0.053240255 0.057689622 0.04955956 0.07603729 0.02700135 0.122742 0.15274574 0.18771143
-0.045486495 0.20909402 0.41599932 0.104077384 -0.05131553 0.104151316 0.14625327 0.026337672
0.055628855 0.09693873 0.10381433 0.029755425 -0.036684528 -0.1280012 -0.04622369 0.11013256
-0.07449652 -0.17174123 -0.10818566 0.07062933 -0.079915516 -0.093013994 -0.04582106 0.07046964
0.08870314 0.04212337 0.0352481 0.03948337 0.05535873 0.029222231 0.019764356 0.0156535
0.02405984 0.016112354 -0.0026763347 -0.0152035775 -0.010503095 -0.015325552 -0.0068169567 -0.030632885
-0.0680213 -0.0031824084 -0.0480714 -0.05233083 -0.14157835 -0.04257918 -0.024743909 0.01947129
0.13331756 0.21147028 -0.10261536 -0.040659044 0.045927007 0.12377325 -0.13403577 -0.03247181
-0.011316922 0.05187149 0.113566965 0.15277511 -0.05447754 -0.026348323 0.06356472 0.08223588
-0.16553369 -0.0456158 -0.03835866 -0.0593825 -0.048953034 -0.018791476 -0.124968626 -0.18205424
0.006950424 -0.025272587 -0.01350644 -0.019814 0.027001532 0.016011756 -0.009299848 0.014203719
-0.21105295 0.2114765 -0.2231785 0.027061414 -0.0019200718 0.009883691 0.012079423 -0.015201503
0.06302544 0.10003832 -0.051203553 -0.17180073 0.016107617 0.10193213 -0.043811142 -0.20486712
0.03836732 0.08159569 -0.09013586 -0.14752747 0.08439224 0.10771445 -0.083609276 -0.13414009
-0.15334441 -0.11822597 -0.026191095 0.02053092 -0.054667287 -0.32491115 -0.1426395 0.07010556
-0.11098556 -0.22744454 -0.1790282 -0.08531833 0.048224524 0.03896304 0.035059314 0.038529754
0.0063607083 -0.01106885 0.22374175 0.03447917 -0.006949522 -0.24884751 0.012093169 0.0058244206
0.2464101 0.01727105 -0.058635313 0.037618868 0.0031194293 0.0023712842 -0.01590098 0.024943147
0.039803933 0.041201673 0.08382474 0.25590056 0.002265284 0.06316122 0.03248722 -0.014078223
0.0057151546 0.14281692 0.050742358 -0.11676791 -0.19495109 -0.07030486 -0.06314535 -0.030555058
-0.06758146 0.026900494 0.05521429 -0.007554478 -0.03278224 0.010510989 0.010402152 -0.10620732
-0.14341661 -0.11493796 -0.058567274 -0.15487812 -0.11407892 -0.2612475 -0.1768122 -0.15515698

crit.0.0.bias f4 [64]
00000000: 8426 e1be 12c7 5f3e 9610 ee3d 8688 65be
00000010: 95cc 6b3d d09a 49be 4890 e6be c4b4 ec3c
00000020: b790 da3d 0d66 1f3f 92f9 783d 9a21 493d
00000030: 4750 693e ce8c edbe cada 76bd 8eca ec3d
00000040: 3691 8a3f 8d1f f3be de4e b53e 9e27 133e
00000050: 3280 ecbe 277d b43e d262 683d f8e7 89be
00000060: 4077 cb3e caad e3bc 3c6a adbe 3abf 9abd
00000070: f972 52be 1f28 b6bd 02c0 12be de12 ee3d
00000080: 8cca a23e c9ba b33e fc18 99bd d7d1 b53e
00000090: 60db 8f3e ae9e 2bbe 89db 15bf b486 643e
000000a0: 9f42 913c 6512 c73d 3d1f 79be bb56 8d3e
000000b0: cc0c 08bd 54b6 fe3d 2740 7c3e ce86 36bf
000000c0: 89eb e53d 41e9 2a3e f3ca 803e dbcd 05bf
000000d0: f0af 3b3e b84d 7a3d e0fc d5bc 8b14 81be
000000e0: 1f45 8bbc 66ac cfbe 9421 a7be b9b9 8d3e
000000f0: c4ff 3bbf 3214 663f 0e60 09be b4d8 64bd
-0.43974698 0.21853283 0.11624257 -0.22415361 0.05756815 -0.19687963 -0.45031953 0.02889479
0.106721334 0.6226509 0.060784884 0.04910431 0.2278453 -0.46396488 -0.060267247 0.11562072
1.0825565 -0.4748501 0.35411733 0.14370582 -0.46191555 0.35251734 0.056734867 -0.2693479
0.39739418 -0.02779283 -0.33870113 -0.07556005 -0.20551671 -0.08894371 -0.14331058 0.116246924
0.31795156 0.35103443 -0.074754685 0.35511658 0.28097057 -0.1675975 -0.5853811 0.2231701
0.017731963 0.09720305 -0.24328323 0.27605233 -0.03321533 0.1243712 0.24633847 -0.71299446
0.112265654 0.16690542 0.25154838 -0.52267236 0.18328834 0.061109275 -0.026121557 -0.25210986
-0.017000733 -0.40561217 -0.32642806 0.27680758 -0.7343714 0.89874566 -0.13415548 -0.055870727

crit.0.1.weight f4 [64]
00000000: 385b a73d e447 aebe 4c95 653d 9962 09be
00000010: 7c30 0d3d ba2b 073e a9d6 9fbd b830 12bc
00000020: 8ca8 853d 0570 903d 357e 093d e967 923d
00000030: 3893 c5bd e1cf 18be 28b3 1cbd bb48 8fbd
00000040: f7d0 3abd 86de 7f3e 419f e43d d592 9cbd
00000050: bbad 5a3e 55b4 8abe cf4a 3c3d 04d0 28bd
00000060: 29cd e0bc 73f3 273d e69f 1f3e 7264 083e
00000070: f1dd 3dbd a163 d0bc 0346 97bc 3eb6 3d3d
00000080: efd3 e33c f282 8fbe 6a61 1dbe 2a2e 083e
00000090: 2465 24be a7b3 943d b549 023e 5587 a4bd
000000a0: eda5 abbd 8d93 2a3d 7c17 29be eaed d8bd
000000b0: 0482 2f3d 0176 683d 737e 48be d9f9 0f3e
000000c0: 0848 8dbd e4fb fa3c 12c9 523d 4c98 1dbe
000000d0: 1589 613e 9043 0e3e b28b 52be 36c8 dbbb
000000e0: b156 4dbe 9fb5 c3bc 23c0 143e c646 4bbc
000000f0: 0987 583e 1e73 3abd 2116 cfbc e6dd 983d
0.081716955 -0.34039223 0.056050584 -0.13416518 0.034470066 0.13200274 -0.07804615 -0.008922748
0.065262884 0.07052616 0.033567626 0.071487255 -0.096472204 -0.1492305 -0.038256794 -0.06996294
-0.04560944 0.2498723 0.11163188 -0.076451935 0.21355335 -0.27090707 0.04596978 -0.041214004
-0.027441578 0.041003656 0.1558834 0.13319567 -0.046354238 -0.025438132 -0.018466001 0.046316378
0.027811019 -0.2802959 -0.15369192 0.1329886 -0.16054207 0.072608285 0.1272343 -0.08033625
-0.08381257 0.04164462 -0.16512865 -0.105922535 0.042848602 0.056753162 -0.19579487 0.14060153
-0.068985045 0.030637689 0.051461287 -0.15390128 0.22024949 0.1389296 -0.20561102 -0.0067072166
-0.20052601 -0.023890315 0.1452642 -0.01240701 0.21145262 -0.04551994 -0.025279107 0.07464199

crit.0.1.bias f4 [64]
00000000: ebab 543d 685a 783e 91f1 b3bb 630d 31bd
00000010: 0fb5 003d d818 40be 17cd e9bd 494d 5bbc
00000020: 1673 ef3c 82a9 adbc 9d9a 1c3d f039 513d
00000030: a2d3 fabc f6d1 94bd e7a1 5f38 c343 e1bd
00000040: 572f 3f3d 1d66 233e ffb3 c23d cc10 debd
00000050: 7004 143e 7b60 383e bae4 8f3c 9c94 9d3d
00000060: e5ee afba 6bbb 803d 509d 07bd 4f38 d7bd
00000070: f749 92bc c95b de3c 3efc 063d cb9e e63d
00000080: 5537 a03b f483 483e a7c9 b0bd ad6c 4abd
00000090: 2065 5dbe fccc 633c d823 ffbd 5266 dd3c
000000a0: dd16 82bc f967 3b3d 9575 ad3d 2fb2 f7bc
000000b0: 271a ccba 6449 aebf b171 0b3e 2f68 72bd
000000c0: 184c 5ebd e7ed adbb dda8 a3bd 32f0 a2bd
000000d0: 8b6f 153e ae04 87bd 22cb df3d 0d52 9dbb
000000e0: 47cd 0a3e cb5a 213d 68cd c03d afd6 bf3d
000000f0: 795b 383d 3157 7e3d ee17 15bd 0aae 7ebb
0.051921766 0.24253237 -0.0054914434 -0.043225657 0.03142267 -0.18759477 -0.11416071 -0.013385125
0.029229682 -0.021198992 0.03823339 0.051080644 -0.030618493 -0.07266609 5.3318126e-05 -0.10999253
0.046676006 0.15956922 0.09506988 -0.108430475 0.14454818 0.18005554 0.01756512 0.076943606
-0.0013422637 0.06285747 -0.03310901 -0.10508787 -0.017857535 0.027143376 0.0329554 0.11260756
0.0048894086 0.19581586 -0.08632212 -0.049420048 -0.21620607 0.013903853 -0.124580085 0.02702633
-0.015880043 0.045753453 0.084696926 -0.030236332 -0.0015571759 -1.3616147 0.13617589 -0.05918139
-0.054271787 -0.005307901 -0.079911925 -0.0795597 0.14593332 -0.065926895 0.109274164 -0.004801041
0.1355487 0.039393228 0.09414178 0.093671195 0.04500911 0.06209487 -0.036399774 -0.003886106

crit.0.1.running_mean f4 [64]
00000000: 9145 bdbe f03b e83c cf9c 463e 2a2b 243f
00000010: 5d1f 2b3e b18e 9abf 4945 94be ab1b 23be
00000020: 2419 553e 49d1 533f fa8b 403e 8697 893e
00000030: a25a 803f cc9f 24bf 876c 5abe 75d3 763f
00000040: 24e8 633f a3cb a9be 6b45 083f 53fe 6c3f
00000050: 4e71 a4be 5fdb 273e 5a83 313e 9b5d 05bf
00000060: 2c63 a53e db61 eabd 119a 94bf 1a4d 61bf
00000070: afc3 1abe 0c82 25be 6f56 25bf 42dd 9f3e
00000080: cca1 ac3e c1e3 383e cc61 373f 666b 0b3f
00000090: 9f2a 883f 843e 22be 37dc 6cbf b56d f93d
000000a0: c091 3abe 2e5b 713f 0f67 04bf a82b f5bd
000000b0: 5733 3d3c 0a66 4c3e 10eb 763d ad79 97be
000000c0: 2c19 6c3f 1780 383e db1f 573f 3627 33bf
000000d0: 9173 e53e 4a7e e23f 4ca1 57be b9df 94be
000000e0: 0f20 23be 939d 07bf 67a0 3fbe 6b71 5d3e
000000f0: 286b 04be ea4e 4d3f ec5c 8ebd be28 81bc
-0.36967137 0.028348893 0.19395755 0.64128363 0.16711183 -1.2074796 -0.2895911 -0.15928523
0.20810372 0.8274122 0.18803397 0.26873416 1.0027659 -0.6430633 -0.21330462 0.9641641
0.89026093 -0.33163175 0.53230923 0.9257557 -0.32117695 0.16392277 0.17335263 -0.52095956
0.32302225 -0.11444446 -1.1609517 -0.8800827 -0.1511371 -0.1616289 -0.6458501 0.31223494
0.3371719 0.18055631 0.716336 0.5446075 1.0638007 -0.1584416 -0.9252352 0.12179128
-0.18219662 0.94279754 -0.51719755 -0.119712174 0.011547885 0.199608 0.060282767 -0.2958502
0.9222591 0.18017612 0.8403298 -0.69981706 0.44814733 1.769479 -0.21057624 -0.29076937
-0.15930198 -0.52974814 -0.18713532 0.21625297 -0.12931502 0.8019854 -0.06951317 -0.015766498

crit.0.1.running_var f4 [64]
00000000: da4c ee3c 2b94 893d 495f 053d 9d35 f23e
00000010: 2062 133c 9ab7 2e3f 74fb a13d 7bda e93c
00000020: c563 0b3d 4950 b43d 5fc3 403c 12ed 143e
00000030: d8ba d53e db54 ba3c abab 963d f20b d53e
00000040: f67e 933d 4faf 373d a135 873d 6cd5 a53e
00000050: 5dbf 233d bc81 8a3d 06c9 f43c 5a86 063e
00000060: d1ec 913c f171 ae3c d0e5 e03e 14f1 993e
00000070: f9ea f63c ee51 863b a1e0 f33d 6e45 ab3d
00000080: 93ae a83c bfbe 573d 2d88 b63e 84e4 2c3d
00000090: 92c5 a13e fb11 e53c da33 f43d be0d 1d3d
000000a0: 9f14 7b3d f290 af3e 0783 f43d 6eb0 333e
000000b0: 765f c13c b838 303c c01d 813d 1dd9 383e
000000c0: 76f4 e83e f391 393c 6936 213e 66e8 a43c
000000d0: f241 253e d580 0b40 953e 8c3d 1a45 b03c
000000e0: 32d3 343d b11d 093d 3ee0 413d bf75 cc3b
000000f0: ad9f ad3e d0e7 653d 394b a23c f16c a63d
0.02908938 0.06717714 0.032561574 0.4730653 0.008995563 0.68248904 0.07909289 0.028546562
0.034030695 0.08804376 0.01176533 0.1454356 0.41744113 0.02274554 0.07356962 0.41610676
0.0720195 0.04484492 0.06602026 0.3238939 0.03997742 0.06763026 0.029881012 0.13137189
0.017813118 0.021294566 0.43925333 0.3006674 0.03014134 0.0040991222 0.11908079 0.08362852
0.020591056 0.052672144 0.3565077 0.042210117 0.31596047 0.027962675 0.119239524 0.038343184
0.061298963 0.34290272 0.11939054 0.17547771 0.02360509 0.01075571 0.063045025 0.18051572
0.4549901 0.011326301 0.15743412 0.020130347 0.16138437 2.1797383 0.06847874 0.021517325
0.044146724 0.03347558 0.047332995 0.0062396224 0.33910885 0.056129277 0.01981126 0.08126248

crit.1.0.weight f4 [128, 64, 4, 4]
00000000: ad07 493c 7d8d c53b 77d7 0ebe 3342 d9bd
00000010: fb7c 3bbd c9ad b93d f3aa 653c 9751 8ebd
00000020: b003 3abd a8d6 923d b957 8abd 4cf1 f7bd
00000030: 3131 14bd 959b 0f3d ca28 29bc a008 29bd
00000040: 9463 0dba c045 973c 14c5 133d bab1 bb3c
00000050: c074 e03c f5d2 703d 8a02 863c 31ac 553d
00000060: bca9 30bd 285d b6bc 7e1d 99bc c473 85bc
00000070: 194d 0ebd af48 feba 45ef f4bc 0b21 7fbc
00000080: 878e cebd e29e df3b 9ee3 663e 78ed b33d
00000090: 3bf8 d53d a83f c03c bfc9 f8bc f38d 5cbd
000000a0: 3f83 da3c 3a8d 23bd 838a 9dbd b7b8 143e
000000b0: 7ab1 ca3d 052a d03d 8d96 653d 8d64 4b3e
000000c0: 5c02 003e 24ca 153e 3499 f33d f302 983d
000000d0: 3d5b 4f3e fe31 253e 26fb df3d 2426 e83d
000000e0: f17f da3d 6d36 80bc 5746 923d 43cc 613c
000000f0: 93ba 3e3b 952a 5f3d ad7d e13d d2e2 0f3d
00000100: dcdf 573c a544 cfbc 7fc4 5bbc a35f a03d
00000110: e043 9b3d d8ee 9cbc 7653 88bd 6d1e 69bc
00000120: 3fe1 22bc 4643 cdbc ef40 82bd c5af 34bc
00000130: 1814 ef3d d1df 443d 8908 e0bd 1a1a a0bc
00000140: eddf 233e e74b c73d f97c dc3d 22f0 a93d
00000150: 33ca c0bd 4591 9fbb da3c 523c b7f9 b43d
00000160: f4d9 d1bd 37d5 32bb 471b 07bc 6839 d83d
00000170: 2016 ecbd bc4a 13be 5b89 39bc d048 693e
00000180: 506b 26be c276 cc3c 45ce 00bd a478 02be
00000190: a9c6 8abe 01b1 a33c 9b98 25be d9a1 29be
000001a0: 0f91 c4bd e19d 6a3e 4fbe 0bbd 6bce ae3d
000001b0: 83a6 6f3d 7a30 8c3e f44f a43d 0fd5 11bd
000001c0: 345f 313d 4609 093e 09f2 143e 4c5b 3c3e
000001d0: 3616 623b fb99 603d ea48 3d3d 14e9 5b3e
000001e0: 058c 3a3c 5234 313c f0b9 e1bc 0cfb 6b3d
000001f0: 9ba7 d43d bce8 d73d acda fb3d 5a00 783e
00000200: 0826 c3bc 1e68 13bd 2651 55bd 06bf f6bd
00000210: b430 653d 3563 28bd f5d1 fe3d 97ba 373d
00000220: 8982 dbbc 2f45 f93d b65a aa3d d952 1fbd
00000230: d4df b2bc 9e8c a53d 7da5 ef3c 2723 a9bc
00000240: 4c0b d4bd 413b 4d3d 53e4 013e 0139 d83c
00000250: b1da ca3c 55d9 233e 5059 ff3d 3da4 7b3d
00000260: 462c 563e 0dd7 933c 654b 2c3e bff4 583e
00000270: 0ec4 503c a7b0 aa3d e8e7 913e 3c00 d73e
00000280: 476c 2a3d a550 5c3d 56e7 7cbc 5770 83bb
00000290: 3268 f73c c6dd f33c 8c74 a8bd e818 1a3c
000002a0: a136 933c b211 4fbd ed37 8fbd 5c0c d2ba
000002b0: 0a10 453e 3b42 f03c d91c 2f3d ee37 f03d
000002c0: 8cca 893e fe3e a53e 2ac1 e73e e9b5 373e
000002d0: 8fe6 b03e c9df 703e 6ca2 6f3e b83e 153c
000002e0: 5d1c 363e b47d d53c 791c ff3d 1db2 473d
000002f0: 1527 c1bc 8448 fc3d 8f49 a33e 4d08 b43d
00000300: 9dfb f03b 386a b33d ee09 aabc c2b0 fa3c
00000310: d7ba e43d 59ff 303d 2a93 4a3d f597 a03d
00000320: 5c57 f73c b3f6 0bbe a550 4bbd e677 8fbd
00000330: 30e7 1e3e 11ea 153e dc1a 3f3a 6d38 b8bc
00000340: bb16 193d 832f 953c c09f 3f3d e3c8 523d
00000350: 82d4 523d f91a f43c d6ae 303c b618 ec3d
00000360: 06a8 0f3d c353 28bd 8359 eabc 082e 703c
00000370: 1b47 8fbc b982 dbbc 2cc8 4ebd 406b 06bd
00000380: af62 4bbd 2484 a1bd 3227 393d 303f e73c
00000390: 307d 233e 0ebb 063e aa9a 133e e080 8fbb
000003a0: 9c02 5f3d fba4 af3e 5c13 f8bd 26a1 63be
000003b0: b366 d3be 8e1d 83be 07f9 b33d 2a1f 0bbe
000003c0: 63b3 d5bd 46e3 d1bd a51d d0bd 3302 8e3d
000003d0: 5b7a 27be a3a3 67bd 266a 45be 0ac4 623e
000003e0: afd0 7e3d 83d9 86bc 70b7 a3be 1c3a b6bc
000003f0: ebc0 16be 67f7 eabd 1f22 2dbd b7c0 7e3d
0.012269896 0.0060288296 -0.13949381 -0.106083296 -0.045773488 0.0906635 0.014017808 -0.06949156
-0.045413673 0.07169849 -0.06755013 -0.121065706 -0.036179725 0.035060484 -0.010324666 -0.04126799
-0.00053935614 0.018465877 0.03607662 0.022911895 0.02739942 0.058794934 0.016358633 0.052166168
-0.04313062 -0.022261217 -0.01869082 -0.016290553 -0.034741495 -0.0019400324 -0.029899249 -0.015571843
-0.10085779 0.00682436 0.22547767 0.08785528 0.10447737 0.023467854 -0.030369638 -0.05384631
0.026673911 -0.039929606 -0.07692435 0.14523588 0.09897132 0.101642646 0.05605178 0.19862576
0.125009 0.14627892 0.118944556 0.074224375 0.20249648 0.16132352 0.10936575 0.113354
0.10668934 -0.015650952 0.071423225 0.01378161 0.0029102906 0.05448397 0.11010299 0.035128422
0.013175931 -0.025301287 -0.013413548 0.07830741 0.075813055 -0.019156858 -0.06656544 -0.0142284455
-0.009941398 -0.025056493 -0.06360041 -0.011028235 0.116737545 0.04806501 -0.10939128 -0.019543696
0.1600339 0.09731274 0.10766024 0.08297755 -0.094135664 -0.0048696124 0.012831891 0.08836692
-0.102466494 -0.002728773 -0.0082462495 0.105578244 -0.115276575 -0.14383978 -0.011324252 0.22781682
-0.16251874 0.024958972 -0.031446714 -0.12741333 -0.2710469 0.019981863 -0.16171496 -0.16565646
-0.0959798 0.22911789 -0.03411704 0.08535465 0.058508407 0.27380735 0.08023062 -0.03560358
0.043303683 0.13382444 0.14545454 0.18394202 0.0034498102 0.054834347 0.046212114 0.21475631
0.011385922 0.010815697 -0.027554482 0.057612464 0.10383531 0.105424374 0.12297568 0.24218884
-0.023821846 -0.035987966 -0.052079342 -0.120481536 0.05595465 -0.041110236 0.1244239 0.04485568
-0.026795642 0.12171399 0.08318083 -0.03889737 -0.021835245 0.08083461 0.029253716 -0.020646645
-0.10353717 0.050105337 0.12684755 0.02639437 0.024762483 0.16000874 0.12468207 0.061435927
0.20915326 0.01804688 0.16825636 0.21187113 0.012742056 0.08334475 0.28497243 0.41992366
0.041607168 0.053787846 -0.015436014 -0.0040111947 0.030201051 0.029768836 -0.082253546 0.009405352
0.017970385 -0.050553985 -0.06993089 -0.0016025412 0.192444 0.029328456 0.04275212 0.11729418
0.26912344 0.32274622 0.4526456 0.17940487 0.34550902 0.23522867 0.23401803 0.009109192
0.17784257 0.026060916 0.124566026 0.048753846 -0.023578206 0.12318519 0.31892058 0.08790646
0.0073542134 0.08760494 -0.020756688 0.030601863 0.11168449 0.04321227 0.049456753 0.078414835
0.030193023 -0.13668327 -0.049637455 -0.07005291 0.15517879 0.1464007 0.0007290074 -0.022487843
0.037375193 0.018211132 0.04678321 0.05146111 0.051472194 0.029798018 0.010783872 0.11528151
0.03507235 -0.041095506 -0.028607136 0.014659412 -0.01748996 -0.026795732 -0.050483868 -0.032817125
-0.04965466 -0.07886532 0.045203395 0.028228372 0.15965724 0.13157293 0.14414468 -0.004379377
0.054445848 0.34305558 -0.121130675 -0.22229442 -0.4128929 -0.25608486 0.087877326 -0.13586107
-0.10434606 -0.10248427 -0.10161904 0.06934013 -0.16355269 -0.05655254 -0.19278774 0.22145095
0.062210735 -0.01646114 -0.3197589 -0.022244506 -0.1472203 -0.114729695 -0.04226887 0.062195506

crit.1.0.bias f4 [128]
00000000: c1f0 95be 1a36 31c0 5b6c 0a40 a3ab 3ebf
00000010: 1fd0 a3bf 2025 5fc0 5812 e83f 29cd 1940
00000020: e634 e53e e7dc 45bf 81e0 0fbe 8ee9 293f
00000030: 17c3 5dbe e2f9 21c0 1bc9 a0bd c60c 0b3f
00000040: 5de0 08c0 a6b8 0ebd 15b5 dd3f ca41 803f
00000050: 600f 3f40 fdf4 ac3e da57 4340 bd63 713f
00000060: 10f4 e83e dcda 0dbf 04d7 c93e 06b1 db3e
00000070: 3ba2 843f b7ad cbbe 494a 0e40 a9fb 95bf
00000080: ec3a 4c3d b5d1 2cc0 32f8 f63d 0e4c 0740
00000090: 4bbc ed3f 8f85 c2bf a4a2 35be 169a 95be
000000a0: 942d 673f 7091 cfbe 316f c7bd 1d74 d13d
000000b0: f9ab 0dc0 d045 4240 9600 d33f 44ef a2be
000000c0: 5795 ad3e be52 3840 d58b 2740 4464 c13e
000000d0: 92f4 ef3e 9b2f 0c40 2969 64bf caf2 373f
000000e0: 01a4 2cc0 c419 1dbf e249 193d f01e 92bc
000000f0: 117e a6bd c7e1 d13e 8ce6 4940 aa64 cbbd
00000100: d368 3640 30c7 debf 113f 19c0 a16d cb3e
00000110: 9445 0cbe 103b 923d 39e4 15bf 70a1 afbf
00000120: 96ec 8e3f e650 8b3f 5d9b 323f e109 ff3f
00000130: 05a6 bebe 2966 69be 3818 24c0 76cd c9bf
00000140: 7a3e cb3d 6bba 1e40 f4cb 4240 215e 06c0
00000150: 1fef 3940 d86c 46c0 fda4 24bf 1d55 6b3f
00000160: 83f0 20c0 42ce 0abf b527 d53e af47 083d
00000170: b8f4 00c0 0915 91bf c1e5 3dbf 8b78 bdbe
00000180: 80c4 ebbf 9ae2 963d 28fd 24bf 9951 1ac0
00000190: ce20 cdbe 8be9 1340 2e35 0a40 56e5 d1be
000001a0: 4365 3a40 a276 413f f78a e13e 8bf3 32be
000001b0: 8aa1 0d3f 564c e8bf 8598 0540 6fbf 3e3f
000001c0: e66c 703f e23d e83f 2f7e 90be 6253 5abf
000001d0: 69c1 5c3e 8a59 1240 77ef b2be d910 a2bf
000001e0: 18b8 94bf 68b1 48c0 be87 613c b39d 3540
000001f0: c4dd 35bf 4791 d23d 051a c13f 38e7 3bc0
-0.29285243 -2.768927 2.1628635 -0.74480647 -1.2797889 -3.486641 1.8130598 2.403147
0.4476692 -0.77290195 -0.14050485 0.66372 -0.21656452 -2.5308766 -0.07850858 0.54316366
-2.138694 -0.034844063 1.7320887 1.0020077 2.9853134 0.3378066 3.052237 0.94292814
0.45498705 -0.5541208 0.39421856 0.42908496 1.0362009 -0.3978097 2.223284 -1.1717426
0.04986088 -2.7002995 0.12059058 2.114017 1.8573087 -1.5197009 -0.17737824 -0.2921912
0.9030392 -0.40540648 -0.09738005 0.10227225 -2.2136214 3.035511 1.6484554 -0.3182317
0.33903 2.8800502 2.6179097 0.3777181 0.4686628 2.1904056 -0.8922296 0.7185484
-2.69751 -0.6136744 0.037423976 -0.017837018 -0.08129514 0.40992567 3.1546965 -0.099313095
2.850148 -1.7404537 -2.3944743 0.39732078 -0.13698417 0.071401715 -0.58551365 -1.3721142
1.116595 1.0884063 0.69768316 1.992489 -0.37236038 -0.22792877 -2.5639782 -1.5765827
0.09924026 2.480128 3.0436983 -2.0994952 2.9052198 -3.1003933 -0.6431425 0.9192675
-2.5146797 -0.54220974 0.41631857 0.033271488 -2.0149364 -1.1334544 -0.741787 -0.3700603
-1.8419342 0.073674396 -0.64448786 -2.4112303 -0.4006409 2.3111293 2.1594958 -0.40995282
2.9124305 0.75571644 0.44051334 -0.17475717 0.55324614 -1.8148296 2.087434 0.74510854
0.93916166 1.8143885 -0.2822127 -0.8528348 0.21558155 2.286715 -0.34948322 -1.2661391
-1.1618681 -3.135828 0.013765274 2.8377502 -0.7104151 0.10281616 1.5086066 -2.9359875

crit.1.1.weight f4 [128]
00000000: 7032 56be c917 3ebf 6822 79bf 055e 58bf
00000010: 4003 5a3e 5f79 d4bf 0c28 9fbe f8a4 66bf
00000020: 7d8d 883e f27b eebe eced ef3e 071b 66be
00000030: 5c5f 46be 6a34 ba3f 3bb8 a4be f6b0 163e
00000040: 6dc7 4b3f e324 12bf 27b6 40be 3fc2 48be
00000050: 37dd a1bf bb96 96be d4d4 ca3f f6b2 87be
00000060: bcfd 403e 0e6a 57be cfc2 13be 5ca2 8c3e
00000070: ef40 3b3e c1fa 8bbe 4601 2ebf 520c cfbe
00000080: 3dd0 943e 00f2 4ebe c09c 433e 4423 3e3f
00000090: 201a 03bf 8a00 f1be 0017 96be fb8c 1cbe
000000a0: bada bd3e 6b34 373e 3419 fc3e 5e91 74be
000000b0: a95c 803f 81c7 04c0 0987 9c3f 5779 933e
000000c0: ec92 9c3e 7a85 ac3f ee6d 54bf 3204 9b3e
000000d0: a3c9 0dbf 35ab e3be e068 0b3f 5bf3 7dbe
000000e0: 3d15 b63f 5adb 58be 287a 7bbe a58e 503e
000000f0: 78e9 4cbe d63c ab3e 4568 b73f 04be 4ebe
00000100: 04fd b93f c8fe ad3e 78a2 353f e4b7 8f3e
00000110: 533b 73be d905 843e a003 a73e ea90 36be
00000120: e943 643e 12eb d4be 158a 6dbe 4d68 713e
00000130: 2b0b 64be 64f3 8bbe c069 903f 372f d6be
00000140: 3546 833e f54a 3ebf eaa3 7a3e e6fd 4dbe
00000150: ff9b 83bf 6bef bb3f df75 6fbe bfe6 533e
00000160: 1dc4 2e3f d9ef 903e 5387 28be f125 fbbd
00000170: b35a 47bf e306 733e c5f4 373e 58ca 843e
00000180: db62 e43e 919c 86be d813 b23e 6704 853f
00000190: c4ab 733e e42d 03bf 35c2 2bbf 624c 723e
000001a0: 341f 5ebf 4a4b a13e 64a4 aebe 9952 acbe
000001b0: cd00 68be 4a56 98be cd66 9e3e f1ac 3d3e
000001c0: f4ab 70be 987a 0bbf 3c2c 0a3e bb60 15be
000001d0: 6ff2 57be 5fde 4fbf 42c4 543e d7cd 083f
000001e0: 9fa3 5ebe ed8c 873f d06f 97be 52a2 aebf
000001f0: fe27 44be e103 44be c981 143f f111 0340
-0.20917678 -0.74255043 -0.97318125 -0.8451846 0.21290302 -1.659954 -0.3108524 -0.9009547
0.26670447 -0.46578938 0.46861207 -0.22471248 -0.19372314 1.4547246 -0.32171807 0.14715943
0.79601175 -0.57087535 -0.18819486 -0.19605349 -1.2645634 -0.29411873 1.58462 -0.26503724
0.18846792 -0.2103655 -0.14429782 0.2746762 0.18286489 -0.27339748 -0.67970693 -0.40439087
0.29065123 -0.20209503 0.19102764 0.7427256 -0.5121174 -0.47070724 -0.29314423 -0.15288155
0.37080938 0.1789109 0.49237978 -0.23883578 1.0028278 -2.0746768 1.222871 0.28803512
0.30580842 1.3478234 -0.8298024 0.30276638 -0.553858 -0.44466558 0.544569 -0.24799864
1.4225231 -0.21177426 -0.24558318 0.20366915 -0.20010936 0.33444852 1.4328696 -0.20189673
1.4530339 0.33983445 0.7095103 0.28069985 -0.23753099 0.2578571 0.32619953 -0.17828718
0.2229153 -0.41585594 -0.23197205 0.23574944 -0.22269885 -0.2733413 1.1282272 -0.41832897
0.256395 -0.74333125 0.24476591 -0.20116386 -1.0281981 1.468244 -0.23384808 0.20693491
0.68267995 0.2830799 -0.16457872 -0.12263096 -0.7787277 0.23733096 0.17964466 0.25935626
0.4460667 -0.26291326 0.34780765 1.0391968 0.23795992 -0.512419 -0.6709321 0.2366195
-0.8676636 0.31502753 -0.34109795 -0.33656767 -0.22656555 -0.29753333 0.30937806 0.18523003
-0.23503095 -0.5448394 0.13493437 -0.14587681 -0.21088575 -0.81198686 0.20777991 0.53439087
-0.21742104 1.0589882 -0.29577494 -1.3643286 -0.19155881 -0.19142105 0.58010536 2.04797

crit.1.1.bias f4 [128]
00000000: b1c9 c9bd 1edd 0540 0d69 1a40 3ca2 4840
00000010: a3a1 40be 926e 8e40 3d7f 33be 2b36 3340
00000020: 5434 593e a00b 323d 093b 023f 72f4 313c
00000030: ed15 5f3d 1527 ba40 2385 19be 559f 19bd
00000040: 090b f43f 7f18 6340 eb9d a5bd 7a37 02bd
00000050: f873 d740 c9b2 24bd 0134 9340 9238 c2bb
00000060: 6f82 14be c9ad 33be 212b 2fbd 3351 8abd
00000070: 20a4 bcbc e2f9 57be d3e5 4e40 05b0 8b3f
00000080: e15d cdbd 36b1 5d3e e51d aabd 6fac 9740
00000090: 5c4b 563f 3c2c 20be 7d85 b7bd bb15 4dbd
000000a0: d8a4 2040 b4ac 6f3d c6f6 f23f 8e51 8a3c
000000b0: 710a 5340 6823 a840 c40c b940 d779 59be
000000c0: 6c4f 44bd 0799 0641 8f54 6940 538e 54be
000000d0: a62d 2140 8da8 ab3e 800c 913f f365 b33d
000000e0: a3c0 9d40 fd6f 5bbc 8b00 0fbb 0553 913d
000000f0: 1375 fcbd 0055 a2bd b3dc 1441 a76f dbbd
00000100: a1eb 9040 29f5 25bd c4de ba3f 7cbd 6bbd
00000110: e985 a33c 4f91 b43c 53fc ab3e 13cd 95bd
00000120: 5b99 29be bfab 7c3e 3b79 173e b6ae 8ebd
00000130: 8f03 f9bd a476 dabd 0882 d740 df83 31be
00000140: 933a 32bd 9f82 5140 5f3e 4f3e a5b0 d03d
00000150: d194 0c40 dda1 dc40 c091 3abe c7ed b9bd
00000160: db8f 9a3f 5a3c 063e b8a8 cfbd f921 eabd
00000170: 20b6 0440 d668 f83c c7fd 08bd 1399 373d
00000180: 602c 8abe 6057 513d 6ec0 93be dd28 2f40
00000190: a52c eabd 0731 6fbe df92 4540 aa61 b23b
000001a0: 854d fa3f e917 583d 0a67 2139 62bb 84bc
000001b0: 045e 0fbd 4df6 7ebd 4f34 abbd 3bf2 16be
000001c0: 5db1 10be 53dc 1f3f 3e80 50bd 21eb a7bc
000001d0: b533 85bd 6604 1940 eadb acbd 3f96 0e40
000001e0: dc62 b3bd 74e2 1e40 6b55 8abe 6322 6640
000001f0: f4c0 16bd 70c0 23be fd8f d33f c3e1 d940
-0.09852923 2.091621 2.4126618 3.134902 -0.1881166 4.4509974 -0.17529006 2.8001812
0.21211368 0.043468118 0.5087133 0.010861503 0.05446427 5.8172708 -0.14992194 -0.037505466
1.9065868 3.5483701 -0.08086761 -0.031791188 6.7329063 -0.040209565 4.600098 -0.005927154
-0.14502881 -0.17546763 -0.04276574 -0.06753769 -0.02302748 -0.21091416 3.2327774 1.0913092
-0.100276716 0.21649632 -0.08306483 4.739799 0.8370874 -0.15641874 -0.08961008 -0.050069552
2.5100613 0.058514312 1.8981559 0.016884591 3.2975123 5.254322 5.7828083 -0.21237884
-0.047927305 8.41236 3.645786 -0.20757417 2.5184112 0.33527032 1.133194 0.0875968
4.929765 -0.013393399 -0.0021820392 0.07095913 -0.12327018 -0.07926369 9.303882 -0.10714655
4.5287633 -0.040517006 1.4599233 -0.057553753 0.019961314 0.022041945 0.33590946 -0.073145054
-0.16562407 0.24674891 0.1479234 -0.06966917 -0.12158882 -0.1066716 6.734623 -0.17335461
-0.043512892 3.2735975 0.20238636 0.10189942 2.196583 6.8947587 -0.18219662 -0.090785556
1.2075151 0.1310896 -0.101396024 -0.11432261 2.073616 0.030323427 -0.033445146 0.044823717
-0.2698698 0.051108718 -0.2885775 2.736869 -0.114342965 -0.23358546 3.0870893 0.0054437714
1.9554907 0.052757178 0.00015392542 -0.016202632 -0.03500177 -0.06224661 -0.083595864 -0.14740841
-0.14130159 0.62445563 -0.05090355 -0.02049786 -0.06504003 2.3908935 -0.08440383 2.2279203
-0.0875909 2.4825716 -0.27018294 3.5958488 -0.03680511 -0.15991378 1.6528317 6.808809

crit.1.1.running_mean f4 [128]
00000000: 3c68 36bf 3cc5 48be 3554 e7bd 4434 993e
00000010: 00f8 92bf b730 f3bc 0cad cf3f 0c82 5ebe
00000020: 8f48 b9bf 02d2 84be 6958 123f c848 13bf
00000030: 731c 8c3f fa90 1d3d 510c 9e3e f49b 073f
00000040: fce0 703f c2a8 7e3f a94a 72bf b4ea bfbe
00000050: cfc6 f63c b0e0 afbe d71f 713d c1a9 b6bf
00000060: 6eb3 a9bf 2c5c 71bf 3460 6cbe 2b4f fb3d
00000070: 21b4 3bbf ca6f ff3e 431d 80bf e1d4 dc3f
00000080: 5ed1 1fbf 5304 7abe d8e0 3cbe 3db2 f0be
00000090: 2a29 47be 4da2 32bc 346c 8dbe 83c0 5fbf
000000a0: 0cbb 04c0 16eb cd3e b8b3 9f3e 9b6f 3cbe
000000b0: c8ad b33d 055e 92bd c894 a1bc b86e 8b3e
000000c0: 1198 da3e b1ea 73bd 486d 603d 2bcd 723e
000000d0: 1a8e 4dbf e725 783d 57c5 313f 83d5 d0bf
000000e0: 35d4 053e 6d67 b53f b41d 34bf bb5d ce3e
000000f0: 5c40 273f a4c0 f3be e1c4 583d 4112 46bf
00000100: 7ba6 8e3c 8513 323f b529 ba3e f118 98bf
00000110: 5bbe 8bbe 60d6 0e3f cdbe a23f 1b58 7d3f
00000120: f7ab 9dbf eb98 9bbf 6c8f 20bf 583f 98be
00000130: 0e84 7dbd a1e0 163d 0ab8 553e 2e3e 0d3f
00000140: 60e8 a63c fe01 843d 797f ab3d 6420 6e3c
00000150: 9b7c 0f3c 46c1 713d 7c99 a53e 56e2 fcbd
00000160: cb78 abbd 2d09 2dbf 0cb2 113e 9128 18bf
00000170: 0486 b93e 9b6b 35bc 1f9b 213f 083d a0be
00000180: cb1d 003f a570 103e d1c6 9d3f d31c e23d
00000190: eeb7 0ebf 461e 5dbd 01f5 7bbf 8afb 02be
000001a0: 3530 f5ba 6bcc 8cbf 9b04 c8bf 73d5 4ebf
000001b0: addc 30bd 3227 103f c402 cabe e03a 90be
000001c0: 2b37 bfbf 1da3 a4be 5782 943e 5e0a c9be
000001d0: 9111 edbe deb5 25be 64ff 2b3f 46a4 0f3f
000001e0: a4c6 293d b248 763c 081d 783d d4ca b3bd
000001f0: 9c2e ed3c 275c d33e 0e76 f5be b7ce da3c
-0.712528 -0.19606489 -0.11295358 0.29922688 -1.1481934 -0.029686315 1.6224685 -0.21729296
-1.4475268 -0.25941473 0.57166153 -0.5753293 1.0946182 0.03846834 0.30868772 0.5297234
0.940933 0.99476254 -0.9464517 -0.37483752 0.030124096 -0.3435111 0.058868255 -1.4270555
-1.3257883 -0.9428127 -0.23083574 0.122709595 -0.7332173 0.49889976 -1.000893 1.7252465
-0.62428844 -0.24415712 -0.18445146 -0.47010985 -0.19449297 -0.010902953 -0.27621615 -0.87403125
-2.0739164 0.4021842 0.31191802 -0.18401949 0.087733805 -0.07146839 -0.019724265 0.2723291
0.42694142 -0.05954999 0.05479172 0.23711078 -0.80294955 0.06058302 0.6944174 -1.6315159
0.13069232 1.4172188 -0.70357823 0.40305886 0.6533258 -0.4760791 0.052922133 -0.77371603
0.017413368 0.69561034 0.36359945 -1.1882612 -0.27293667 0.5579586 1.2714478 0.98962563
-1.2318105 -1.2156042 -0.62718844 -0.29735827 -0.061893515 0.036835317 0.20870987 0.55173004
0.020374477 0.064456925 0.08373923 0.01453409 0.008757736 0.05902221 0.32343662 -0.12347858
-0.08372649 -0.67592126 0.14228076 -0.594369 0.36235058 -0.011073018 0.6312732 -0.31296563
0.5004546 0.1410547 1.2326299 0.11040654 -0.55749404 -0.05398395 -0.9842072 -0.12791267
-0.0018706383 -1.0999883 -1.5626405 -0.8079445 -0.043179203 0.5630981 -0.39455235 -0.28169918
-1.4938711 -0.32155696 0.2900569 -0.39265722 -0.46302465 -0.16182658 0.6718657 0.56110036
0.041449204 0.01503198 0.06057456 -0.08778921 0.02895289 0.41281244 -0.4794163 0.026709897

crit.1.1.running_var f4 [128]
00000000: 599c c73c fc9d 8b3d 706d f33c 510d 923c
00000010: 7a22 873d 3161 493d 92fd 9a3d 070b 2c3d
00000020: 1ecb 553d d644 d83d d94d 903d f82d 333c
00000030: 6060 023d 29b7 3d3d 413b 553d 4e31 dd3c
00000040: 444f b03d ba49 7f3c 7e38 063d c28f bc3c
00000050: ba58 2d3d d6c1 ab3d 3a0b 423d 10b2 cf3c
00000060: b5ba 283d 3d42 2c3d d90f d93c f9e9 843d
00000070: 0183 073d d069 d93c 3627 763d f7ad 203d
00000080: fa3d 913d ff8d 653d ebbe f53c 18a6 433d
00000090: ad74 d23c c16e a03c 983e 323d 906b c03c
000000a0: 9e8a 523d 7184 303d 3013 873c 37b6 323e
000000b0: c6cb e93c f8a2 783d 842b 313d 1645 683d
000000c0: b5d3 6f3d 1ed0 553d 1938 263d b567 423d
000000d0: 726e b73c 259c 0d3d d26c ef3c a7a6 263d
000000e0: 22db 1e3d 604c 043d c0d3 683d 2fb0 3d3d
000000f0: 0d5b bc3c e336 dd3d c9d4 393d f1ae 003d
00000100: 26b0 213d 1a99 243d 55b7 0b3d 4425 b53c
00000110: 80aa 953d db73 e63c 1de6 453d ac76 203d
00000120: 4219 353d c728 243d ac25 af3d 9205 0f3d
00000130: 8a9b 213d 4135 c33d 68ac 423d 1c6c 053d
00000140: d188 9b3d 1d5a 1f3d 35d9 763d a413 bd3c
00000150: d9ec 333d 67a3 723d 4b95 2b3d 40d6 0d3d
00000160: fc72 243d b8b4 763d 658e 273d 8d9c fd3c
00000170: ddf2 2e3d 3e5a c03c 6415 9d3c aca8 903d
00000180: 91ba dc3c 9d40 833d 490b a13c 1f51 f03c
00000190: ac9e 183d 3114 8f3c 7b29 8c3d 09a1 9d3d
000001a0: 317e 1a3d e380 b23c 399a 043d 071f df3d
000001b0: 907b 463d e52f b43c 5988 dc3c 2b35 8e3c
000001c0: 42f7 d53c 2a8f 3f3d 3da8 9c3c 4ba5 093d
000001d0: d6a2 113d 9494 e13c 2181 453d 3aa1 ed3c
000001e0: b911 393c ecd9 403d d0a8 6b3d fa2a 843d
000001f0: 8f43 bd3c c4f8 203d 4c73 8c3d a2c3 703d
0.024366545 0.068172425 0.02971527 0.017828615 0.06598373 0.049164955 0.07567896 0.042002704
0.05219566 0.105600044 0.07046098 0.010936253 0.03183019 0.046317253 0.052058462 0.02700105
0.08608869 0.015581543 0.03276872 0.023017768 0.042320944 0.08386581 0.047373988 0.025353462
0.041193683 0.042055357 0.026496815 0.06489939 0.03308392 0.026539713 0.06009599 0.039228406
0.07091899 0.05604362 0.029998263 0.04776582 0.025690401 0.019584062 0.043516725 0.02348879
0.051401727 0.043095056 0.016488642 0.17452322 0.02853955 0.060702294 0.04325439 0.05670651
0.05855151 0.05220043 0.040580843 0.047462184 0.022391532 0.03457274 0.029226694 0.040686276
0.0387832 0.0322994 0.056842566 0.0463106 0.022992635 0.108014844 0.045368943 0.031416837
0.03947463 0.04018507 0.034110386 0.022112496 0.07307911 0.028131416 0.048315156 0.039175674
0.04421354 0.04007795 0.08552107 0.03491742 0.039454974 0.09531642 0.0475277 0.032573804
0.07594455 0.038904298 0.06026574 0.023080654 0.043927047 0.059237864 0.041890424 0.034628153
0.04014872 0.06023094 0.040907282 0.030958438 0.04271208 0.02348053 0.019175239 0.070634216
0.02694443 0.064088084 0.019658701 0.029335557 0.037260696 0.017465683 0.06843849 0.07696731
0.037718 0.021789974 0.03237364 0.1089459 0.048457682 0.021995494 0.026920484 0.017359337
0.026118878 0.04676739 0.019123191 0.0336049 0.035555683 0.027536668 0.04821885 0.029007543
0.011295729 0.047082826 0.05753404 0.0645351 0.023103504 0.03929974 0.06857929 0.05878032

crit.2.0.weight f4 [1, 128, 4, 4]
00000000: 27c5 a03d cd17 1d3d 7763 293c 9c54 4e3d
00000010: c740 4ebc 7149 64bd b4ff 92be 9357 2cbd
00000020: e9d2 2bbc 5202 ddbc 5d3c 81be 07b6 5abe
00000030: a804 ab3c bc00 1cbd e514 26bf 33ff 8a3d
00000040: 76e9 b4be 243b d2be e648 fabe 3461 c8be
00000050: 06e7 c5be ae9a d43d b20c 083f 61dd c13e
00000060: 105c e2be e92c 3a3f d405 433f f9b1 263f
00000070: 699a 21bf e256 7a3f 31a2 853d 2733 c43f
00000080: ebd8 07bf db22 abbf 576b 17c0 1309 c6bf
00000090: b034 23bf 3a9f 25bf 8c8a 7e3d fad4 6c3e
000000a0: 7606 b8be 613a 263e a0c0 9c3e b089 d93e
000000b0: fdc8 50be 7ed2 283e bec7 b73e 9872 ba3e
000000c0: 7fa1 e23e 6f54 2c3f b62c 4c3f 5959 363f
000000d0: f134 bc3e 0e73 883e afd0 2abf 03c4 12bf
000000e0: 3b98 0c3f a2c2 e13d 568c 40bf cc5d 2bbf
000000f0: 76f9 433f ae11 643e 73f7 51bf 6b25 5cbf
00000100: 09f5 063f 8023 203e c17d 6d3e 368d bd3e
00000110: ac00 613e b61f ddbd bea3 ecbd ca78 abbd
00000120: 8a25 9e3e 8fea 1cbe 0344 adbd 1e0b 55be
00000130: d767 8b3e f26f 14be 101e 7cbe 6311 64be
00000140: 12f6 28bf 41d5 12bf 185e d2bf 3d1d aabf
00000150: 388b 63be ff9a 103f 82ed 0040 04ff 57be
00000160: 2dbe 51bc aa36 a03f d9cf c13f 5bde 563c
00000170: 1b68 82bd d1d2 0440 06d7 1d3f d19a e4be
00000180: 010c 443e af3c a13e 511c 543e 598b 563d
00000190: 43c8 cf3d 39a5 713e 5a57 54bd 9097 8fbe
000001a0: 7a6d 1fbd 5978 85be d2ae 97be 6177 aa3d
000001b0: 66f9 333e 3961 2fbe 866a 4b3e ff02 fcbe
000001c0: 92b0 cb3f d31a 693f ce95 be3e cc0d 083e
000001d0: 795b 893f ebf4 e3bc 9524 0fbf a838 0abf
000001e0: 034c 883f 064b 0cbe 24d3 9ebe ac1a a1be
000001f0: 1751 a63f 1170 333d e1b0 c9be 51cc e4be
00000200: 3fa0 ca3e a2ff 113f e2a4 823f af91 4b3f
00000210: 3851 663e a1f8 173e df14 16be 8860 5abe
00000220: 96e5 bb3d cd99 15bd 6aaa 93be c089 1bbe
00000230: c00b c23d f18c a8ba 1af7 49be 8a55 a3be
00000240: d30b 22bf 9c0d 33be b883 2fbe f191 e9bd
00000250: bf75 1ebd 3c38 09be c7db c03e d2c5 10be
00000260: 2e63 d1be edb6 35be 2605 97bb fc68 4e3e
00000270: 856b 98be d5e7 103f 3a7d c0bd 6672 263e
00000280: 1150 44bf f896 58bf 3d9b a9be a7f5 1f3e
00000290: a3dd 38bf dd30 b1be ccef 753d c305 acbd
000002a0: 5ad3 25bf 17ca 40be 577d 143e e08d 3bbc
000002b0: 2a2c f7be 20a9 1abe c54a 3c3e 3f5a 103e
000002c0: d3b0 213e 1820 a33d fa95 303e 6087 223e
000002d0: 2570 bb3d 7ee5 853d 60de bcbd d187 dabe
000002e0: 57e4 a73d 44ad eebd 5001 86bd e005 9bbe
000002f0: 8f17 4b3d d621 aa3b 687c 29bf cc8d a1be
00000300: c69a e23e 60f3 563b 7fb9 35bd 7bad 9bbc
00000310: f90b e03e 417e c33b 8b52 40be fa9e d0be
00000320: 1dbb da3e d9dc 76be 1182 4a3c 952d 6c3d
00000330: c41c f43e 2d7a b53d 83af 60be a2b2 e8bd
00000340: eece 103f f8a5 06be 68d0 02c0 10a0 42c0
00000350: abf7 5c3f 1f05 133f f917 e2be d8ec 18bf
00000360: e0c2 8e3f 4b48 203f 32cc 8cbe 3f44 f0be
00000370: fa82 943f a0e1 563f e82b b0be 4855 a2be
00000380: 1739 19bf 2a5f 02bf b729 c73e a0d7 ac3d
00000390: 41fe 0cbf 17d5 05bc 4d2e 063e 9cab 4a3b
000003a0: 218a b7be 2aaf 203d 0b81 763d 24df 363c
000003b0: 48a0 e1be 66c7 573d 078e a33d d871 5abe
000003c0: f143 6ebc 7ec2 683c 32f5 3bbe a44f 62be
000003d0: 371f 443e 2070 e0bb cbf7 083e 17f1 253f
000003e0: bcb2 90bd ac47 35bf 8c09 5d3e b3ef b1be
000003f0: b0c6 bc3d 9766 103e 198f c6be a639 613e
0.07850104 0.038352776 0.010338656 0.05037366 -0.012588686 -0.0557341 -0.2871071 -0.042075705
-0.010487297 -0.026978645 -0.25241366 -0.213585 0.020876244 -0.038086638 -0.6487563 0.06786957
-0.35334367 -0.41060746 -0.48883742 -0.3913666 -0.3865282 0.10381065 0.5314437 0.3786421
-0.44210863 0.7272478 0.7618077 0.65115315 -0.63126236 0.9778882 0.06525076 1.532811
-0.53065366 -1.3370012 -2.3659265 -1.5471519 -0.6375227 -0.64696085 0.062143847 0.23128119
-0.3594243 0.16233207 0.3061571 0.4248786 -0.20389171 0.16486546 0.3589458 0.36415553
0.44263837 0.67316335 0.79755723 0.71230084 0.3675914 0.2665028 -0.66724676 -0.5733034
0.54919785 0.110234514 -0.75214136 -0.6694 0.7655252 0.2227237 -0.820182 -0.85994595
0.52717644 0.15638542 0.23192503 0.37021798 0.21972913 -0.10797064 -0.11554669 -0.08372648
0.30888015 -0.15323852 -0.08460238 -0.20805022 0.2722766 -0.14495829 -0.24620843 -0.22272258
-0.66000473 -0.5735665 -1.6434965 -1.3290173 -0.22221076 0.56486505 2.0144963 -0.21093374
-0.012801689 1.2516682 1.5141555 0.013114537 -0.06367513 2.0753672 0.61656225 -0.44649366
0.19145204 0.3149161 0.20713927 0.052378986 0.10145619 0.23598184 -0.051841117 -0.2804532
-0.038922764 -0.2606838 -0.29625565 0.08323551 0.17575607 -0.17126931 0.19864854 -0.49221036
1.591326 0.91056556 0.37223667 0.13286513 1.073104 -0.027826747 -0.55915195 -0.539927
1.0648197 -0.13700494 -0.31020463 -0.31465662 1.2993497 0.043808047 -0.3939276 -0.4468713
0.39575383 0.5703069 1.0206568 0.7951917 0.2249192 0.14840938 -0.14656399 -0.21325886
0.091746494 -0.03652363 -0.28840953 -0.15189266 0.094748974 -0.0012859387 -0.19723168 -0.319012
-0.6329929 -0.1748566 -0.1714009 -0.11404789 -0.03868651 -0.13400358 0.37667677 -0.14137962
-0.4089598 -0.17745562 -0.004608768 0.20157236 -0.2976953 0.5660375 -0.09398885 0.16254577
-0.7668467 -0.8460536 -0.3312625 0.15621053 -0.7221319 -0.34607592 0.06004314 -0.083995365
-0.6477562 -0.18827091 0.14500938 -0.0114474 -0.48275882 -0.15103579 0.18387897 0.14096926
0.1579011 0.07965106 0.17244712 0.15871954 0.09152249 0.06537913 -0.09222102 -0.42681745
0.08197849 -0.116541415 -0.06543219 -0.3027792 0.049583014 0.005192022 -0.66205454 -0.31553495
0.44258708 0.0032798871 -0.044366356 -0.01900362 0.43759134 0.0059659784 -0.18781488 -0.4074629
0.4272088 -0.24107684 0.012360112 0.057660658 0.47678196 0.08861194 -0.21941952 -0.113621965
0.5656575 -0.1314925 -2.04397 -3.0410194 0.8631541 0.5742969 -0.44158915 -0.59736395
1.1153221 0.6261031 -0.2749954 -0.46927068 1.1602471 0.83938026 -0.34408498 -0.3170569
-0.5985274 -0.5092646 0.38899013 0.08439565 -0.5507546 -0.00816848 0.131036 0.003092504
-0.35847571 0.03922955 0.06018166 0.011161599 -0.44067597 0.052680396 0.07986074 -0.2133249
-0.014542566 0.014206527 -0.18355253 -0.22100693 0.19152533 -0.006849304 0.13375776 0.64821
-0.07065341 -0.7081249 0.21585673 -0.34753188 0.09217584 0.14101635 -0.3878105 0.21994647
